diabetes.pt (torch_old, 6739 bytes, 6 tensors)

weight f4 [20, 8]
0	0x3f0df5f2	0.5545341
1	0xbf279c75	-0.6547311
2	0x3e82f16d	0.25574818
3	0x3d69d14a	0.05708436
4	0xbf27344c	-0.65314174
5	0x3edb342d	0.42813244
6	0x3f1f8a5a	0.6232048
7	0x3d408898	0.047005266
8	0xbe44db8d	-0.19224377
9	0x3e8a1eeb	0.26976714
10	0xbea92794	-0.33038008
11	0xbe385b80	-0.18003654
12	0x3e70b989	0.23508276
13	0xbe493245	-0.19648083
14	0x3e092e3a	0.1339654
15	0x3dc609ab	0.09669813
16	0xbe2d71a0	-0.16937876
17	0xbdc91df6	-0.09820168
18	0x3d908678	0.07056898
19	0xbed43841	-0.41449168
20	0x3d9030f3	0.07040586
21	0xbe3be829	-0.18350281
22	0x3ea996f9	0.33122995
23	0xbe843303	-0.2582017
24	0xbea185e1	-0.31547454
25	0xbc8f766d	-0.017512525
26	0x3e041d92	0.12901905
27	0x3e3a6a6f	0.18204664
28	0x3d0ff565	0.035146136
29	0x3e3f1b0a	0.18662658
30	0xbfebd06a	-1.8422978
31	0xbecafdaf	-0.3964667
32	0x3e8741a3	0.26417264
33	0xbdd7d1ec	-0.10538086
34	0xbdf94984	-0.12172225
35	0xbdfccb96	-0.123435184
36	0xbe3c5bcc	-0.18394393
37	0xbc7c1100	-0.0153849125
38	0xbe434158	-0.19067895
39	0x3dd22924	0.10261753
40	0xbef8d9db	-0.4860371
41	0x3e6a70ee	0.22894642
42	0xbdb09686	-0.0862246
43	0x3c7a25a0	0.01526776
44	0x3dd0aec5	0.10189585
45	0xbe8f6b21	-0.2801142
46	0xbfa467ef	-1.2844218
47	0xbf17236f	-0.5903844
48	0x3e3c4ebf	0.18389414
49	0xbeb50f88	-0.35363412
50	0xbea6a384	-0.32546628
51	0xbbc0c9a2	-0.0058834115
52	0x3df47a14	0.11937347
53	0x3e860f22	0.2618342
54	0xbf825ae7	-1.0183991
55	0x3f0416c4	0.5159724
56	0xbe386a30	-0.18009257
57	0x3e98845c	0.29788482
58	0xbdee0852	-0.11622681
59	0x3e9d59aa	0.3073247
60	0x3e5e6a99	0.21720351
61	0xbe25fdce	-0.162101
62	0x3d53339d	0.051562894
63	0x3e57e339	0.21082772
64	0xbecbc392	-0.39797646
65	0x3dd0c214	0.101932675
66	0xbebf31db	-0.37342724
67	0x3e4ffeb7	0.2031201
68	0x3d3ddfb1	0.046355907
69	0xbec7fbae	-0.39059204
70	0x3f0d6c24	0.55243134
71	0x3ef0d058	0.47033954
72	0xbcce36a6	-0.025172543
73	0x3e28e85a	0.16494885
74	0x3d8bc77a	0.068251565
75	0xbebd504c	-0.36975324
76	0xbc7a0179	-0.01525914
77	0xbe9e4dc2	-0.309187
78	0xbfa81f13	-1.3134483
79	0x3e7d7ee8	0.24755442
80	0xbe917ec8	-0.2841704
81	0xbed793c8	-0.42104936
82	0x3e87191f	0.26386353
83	0x3e964a84	0.29353726
84	0x3e028260	0.12745047
85	0xbe32ad5e	-0.17448947
86	0x3fa87b86	1.3162696
87	0xbf632152	-0.8872272
88	0xbdbb426a	-0.09143527
89	0x3e8d841d	0.27639857
90	0xbec85068	-0.39123845
91	0xbf17c2a8	-0.59281397
92	0xbe043e17	-0.1291431
93	0x3e526739	0.20547189
94	0xbee7e7ff	-0.45294186
95	0xbe694e68	-0.22783816
96	0x3f113c17	0.56732315
97	0x3e50a78e	0.20376417
98	0xbea75350	-0.3268075
99	0x3ec693f0	0.38784742
100	0x3e31a31b	0.17347376
101	0xbdfb676e	-0.12275587
102	0xbf0c4899	-0.54798275
103	0xbeb1c64e	-0.34721607
104	0x3d799b41	0.060939077
105	0xbe89766b	-0.26848158
106	0x3ea8f53b	0.32999596
107	0x3e96464b	0.29350504
108	0xbd8dd25b	-0.06924888
109	0xbe8086dd	-0.25102893
110	0xbf45f6ad	-0.7732952
111	0x3e8afa83	0.2714425
112	0xbf36e24b	-0.71439046
113	0xbc64ffd7	-0.013977013
114	0x3da9ecc9	0.08297116
115	0x3e8a4a31	0.2700973
116	0x3e8fe6dd	0.28105822
117	0xbe96c930	-0.2945037
118	0x3f681fa3	0.90673274
119	0xbe9c770b	-0.30559573
120	0xbe817944	-0.2528783
121	0x3ea2a1fb	0.31764206
122	0x3ce98966	0.0285079
123	0x3e0b8409	0.13624586
124	0xbe4adcee	-0.1981084
125	0x3ded8ecc	0.11599502
126	0x3f28b921	0.65907484
127	0x3e8443d2	0.25832993
128	0xbe8718c4	-0.26386082
129	0x3e6b165e	0.22957751
130	0x3b900b60	0.0043958873
131	0x3cd3aade	0.025838312
132	0xbdf01480	-0.1172266
133	0xbe6e4986	-0.23270234
134	0xbf4285c5	-0.75985366
135	0x3e883f85	0.26610962
136	0x3dda1300	0.10648155
137	0xbe7c7c33	-0.24656753
138	0x3d04e350	0.032443345
139	0xbd39ee98	-0.045393556
140	0x3d9c8e98	0.07644385
141	0xbe0e184d	-0.13876458
142	0x3e607ef6	0.21923432
143	0xbe98cc45	-0.29843345
144	0x3d039443	0.032123815
145	0xbe3c6b56	-0.1840032
146	0x3e8ced85	0.27524963
147	0xbe9c6bb3	-0.30550918
148	0x3d9cba99	0.07652778
149	0x3ea2f49b	0.31827244
150	0xbfb18af4	-1.387053
151	0xbe673b84	-0.22581297
152	0x3f26b61d	0.6512163
153	0xbe2f490b	-0.17117707
154	0x3e5d57ca	0.2161552
155	0xbe199e81	-0.1500187
156	0x3d99cbfb	0.07509609
157	0x3da93a84	0.08263114
158	0x3f8aefac	1.0854392
159	0xbdc12166	-0.09430198

bias f4 [20]
0	0xbdf194fb	-0.11795994
1	0xbf9ddbab	-1.2332662
2	0xbead6cb6	-0.33872002
3	0x3ff2a0f8	1.8955374
4	0x3da48330	0.080328345
5	0x3e87ee1d	0.26548854
6	0xbf15ea47	-0.58560604
7	0x3e8ec14e	0.27881855
8	0x3f5e5554	0.8684895
9	0x3ff4b687	1.9118203
10	0x3d5d0dfe	0.053968422
11	0x3ec6eacc	0.3885101
12	0xbe38e3ef	-0.180557
13	0x3fc4b434	1.5367494
14	0xbf0a556c	-0.54036593
15	0xbf999bc7	-1.2000664
16	0x3fa2b146	1.271035
17	0xbd622218	-0.055208296
18	0x400d4cee	2.2078204
19	0xbe9b3546	-0.30314082

weight f4 [20, 20]
0	0xbe929e99	-0.28636625
1	0xbca5cdfc	-0.020239823
2	0x3d91cf09	0.07119567
3	0x3e80c20d	0.2514805
4	0xbe385560	-0.18001318
5	0x3d924022	0.071411386
6	0xbe94ea43	-0.29084978
7	0x3de70291	0.112797864
8	0xbe0945de	-0.13405558
9	0x3e0f6827	0.14004575
10	0x3fa9233a	1.3213875
11	0x3e5ffc63	0.21873622
12	0x3c6c3508	0.0144169405
13	0x3d8e567a	0.06950088
14	0x3db93df2	0.09045018
15	0xbe1ef27a	-0.15522185
16	0x3e41944b	0.18904226
17	0xbdf49e1a	-0.11944218
18	0xbd8541c4	-0.065066844
19	0x3e40ce05	0.1882859
20	0x3de118f8	0.109910905
21	0xbd0ad48e	-0.033894114
22	0x3e1ad733	0.15121154
23	0x3e3367d1	0.17520072
24	0x3dc2afe8	0.09506208
25	0x3e7b3147	0.24530517
26	0x3c248d07	0.010043389
27	0x3ccb85ad	0.024844015
28	0xbe5855be	-0.21126458
29	0x3dc50759	0.09620542
30	0x3f32e5b2	0.6988174
31	0x3ecc57d3	0.39910755
32	0x3d4e5a19	0.050378893
33	0xbd9a4c43	-0.07534077
34	0xbe514f45	-0.20440395
35	0xbd62e80a	-0.05539707
36	0x3dc7b5bb	0.09751459
37	0xbe1fa764	-0.15591198
38	0x3e8a35ce	0.26994175
39	0xbddbab1c	-0.10725996
40	0x3cb2adee	0.021811452
41	0x3d729c73	0.059231233
42	0xbd35a1df	-0.044343825
43	0x3d29a5af	0.041417774
44	0x3e502710	0.20327401
45	0x3b4563e0	0.0030119345
46	0x3dcc6aaa	0.09981282
47	0xbe868b55	-0.26278177
48	0xbdd5ea95	-0.104451336
49	0xbe1d181f	-0.15341233
50	0x3e180d4e	0.14848825
51	0x3e42cca2	0.19023374
52	0xbd82492d	-0.063616134
53	0x3d28b9ba	0.041192748
54	0x3db183eb	0.086677395
55	0xbe12c07b	-0.14331238
56	0x3c8bca73	0.017064309
57	0x3e250fb2	0.16119269
58	0xbe4e1b05	-0.20127495
59	0xbe58896b	-0.21146171
60	0xbe9fc240	-0.31202888
61	0x3cdb5851	0.026775511
62	0x3d237c98	0.039913744
63	0xbe289044	-0.16461283
64	0x3e11fcd2	0.142566
65	0xbe8f6a6d	-0.28010884
66	0xbde275cb	-0.110576235
67	0xbe324c76	-0.1741198
68	0x3d83e6ec	0.06440529
69	0xbeafa82b	-0.3430799
70	0x3e41604f	0.18884395
71	0xbea6fb33	-0.32613525
72	0xbd890459	-0.066902824
73	0xbe1f2bf7	-0.15544115
74	0xbda5c2ca	-0.08093794
75	0x3dc060dd	0.09393475
76	0xbcb688d4	-0.022282042
77	0x3d42e350	0.047580063
78	0x3d7d2559	0.061803196
79	0x3d86b745	0.06577925
80	0x3ef937e8	0.48675466
81	0xbd8a342e	-0.06748234
82	0xbdc9648a	-0.098336294
83	0xbdde8dd4	-0.10866895
84	0xbe3b0820	-0.18264818
85	0xbf252dd0	-0.6452303
86	0x3eedbc8e	0.46432918
87	0x3e24c957	0.1609243
88	0xbf992a62	-1.1966059
89	0xbe0c0674	-0.13674337
90	0xbf440f6f	-0.7658605
91	0x3d2f4778	0.042792767
92	0xbe846f75	-0.25866285
93	0xbdc0838c	-0.094000906
94	0x3e62b5a1	0.22139598
95	0xbd50aa16	-0.050943457
96	0xbe1893f0	-0.14900184
97	0xbc39f330	-0.011349484
98	0xbc81a123	-0.015823906
99	0x3e186532	0.14882353
100	0x3ee1a5a3	0.44071683
101	0x3d04bdf3	0.032407712
102	0xbd727835	-0.05919667
103	0xbe5d9a2d	-0.21640845
104	0xbbbde0c0	-0.0057946146
105	0x3dc9d315	0.09854714
106	0x3e1d0dd9	0.15337314
107	0x3e3f5ba8	0.18687308
108	0x3da1ee1b	0.07906743
109	0x3d1e37bd	0.038627375
110	0xbf79ec3d	-0.97626096
111	0xbe1b885f	-0.1518874
112	0xbe3164e3	-0.17323641
113	0x3e03214d	0.12805672
114	0xbdce8afe	-0.100851044
115	0x3dc0d342	0.09415294
116	0x3d5d63ce	0.05405026
117	0xbe267a85	-0.16257675
118	0xbd4b7525	-0.049672265
119	0x3cc4ba67	0.024014665
120	0xbe21bb2c	-0.15794057
121	0xbcea2807	-0.02858354
122	0x3c8d2a73	0.017232155
123	0xbdcd80d2	-0.10034336
124	0x3dd8a5b4	0.1057848
125	0xbd2738dc	-0.04082571
126	0xbe83ddea	-0.25755244
127	0x3e3fbdd6	0.1872476
128	0x3d0a46b8	0.03375885
129	0xbdc7b010	-0.09750378
130	0x3f912bc8	1.1341486
131	0x3df6602c	0.12030062
132	0xbdbcde8d	-0.09222136
133	0xbe174c08	-0.14775097
134	0xbccbf9a1	-0.024899306
135	0xbe10b6e7	-0.14132272
136	0x3e101ca6	0.14073429
137	0x3e1edece	0.1551468
138	0x3e824f13	0.25450954
139	0x3e015e8e	0.12633726
140	0x3e49a5f1	0.19692208
141	0x3d3d64f6	0.046238862
142	0xbcf5b8e8	-0.029995397
143	0x3eb62b89	0.3558009
144	0xbdfbf5be	-0.12302731
145	0xbe53e666	-0.20693359
146	0xbff0ee7d	-1.8822781
147	0xbe8f11a6	-0.27943152
148	0x3de2d1c2	0.110751644
149	0xbcd76fb2	-0.026298378
150	0x3ebc9ad3	0.36836872
151	0xbd8c43dd	-0.068488814
152	0xbe813d0a	-0.25241882
153	0xbe6556c1	-0.22396375
154	0xbe889a10	-0.2668004
155	0x3e19de3e	0.15026185
156	0xbe229640	-0.15877628
157	0xbdd323d0	-0.10309565
158	0xbde58610	-0.11207211
159	0x3e0f28a0	0.13980341
160	0x3e706c34	0.23478776
161	0xbe62e2d4	-0.2215684
162	0xbc306074	-0.010765184
163	0xbd069194	-0.032853678
164	0xbe3c0628	-0.18361723
165	0x3ddfbc9c	0.10924646
166	0xbe8a9cb7	-0.2707269
167	0xbe591c04	-0.21202093
168	0x3d8eff04	0.06982234
169	0xbc8d34d2	-0.0172371
170	0x3e1c9e1e	0.15294692
171	0xbea1a151	-0.31568387
172	0xbd54d23a	-0.0519583
173	0xbd38b354	-0.045092896
174	0x3d4867f1	0.04892725
175	0x3dd274a6	0.10276155
176	0xbe213f88	-0.15746891
177	0xbd521cb4	-0.051296905
178	0xbd9375cd	-0.07200203
179	0xbe49e208	-0.1971513
180	0xbddb8c8a	-0.10720165
181	0xbc8a0e00	-0.016852379
182	0xbdd1162f	-0.10209309
183	0xbc5d19d9	-0.013494932
184	0xbe366c8f	-0.1781485
185	0xbd9b8288	-0.07593256
186	0xbde5e634	-0.112255484
187	0xbe86398b	-0.26215777
188	0x3df4653c	0.119333714
189	0xbd4fe9d4	-0.050760105
190	0x3e10882e	0.14114448
191	0x3de307a8	0.11085445
192	0x3d101008	0.03517154
193	0x3e12dff4	0.14343244
194	0xbe26c3b7	-0.16285597
195	0xbd7d6e9a	-0.061873056
196	0xbe701233	-0.23444442
197	0x3e4aeb46	0.19816312
198	0xbd46d43f	-0.048542257
199	0xbe5af6da	-0.21383229
200	0xbf0130a6	-0.50464857
201	0xbeacff69	-0.33788612
202	0xbe3c3a19	-0.18381537
203	0x3d0ff102	0.035141952
204	0xbe319198	-0.17340696
205	0x3d9a80d1	0.07544101
206	0xc018737b	-2.3820484
207	0xbeabdb8d	-0.3356594
208	0x3d0a2d64	0.033734694
209	0x3de55d03	0.11199381
210	0xbbce7074	-0.0063000266
211	0x3e08cd64	0.133596
212	0x3d6dc4a3	0.058048856
213	0x3ed4798d	0.41498986
214	0xbe2fc0bd	-0.17163368
215	0x3c2e1f53	0.010627585
216	0xbe0221e8	-0.12708247
217	0xbe44ecbd	-0.19230933
218	0x3f0c6444	0.54840493
219	0x3f08c8f4	0.5343163
220	0xbd73816e	-0.059449606
221	0x3ca1b1da	0.019738127
222	0x3e06fc94	0.13182288
223	0x3cb74205	0.022370348
224	0x3e341724	0.17586952
225	0x3e1d9a1c	0.1539082
226	0x3c163d06	0.009169823
227	0x3e488cee	0.1958501
228	0x3cd86a5a	0.0264179
229	0xbddab042	-0.1067815
230	0x3f78fe2d	0.9726284
231	0x3c3ddcc1	0.011588276
232	0x3e4151c9	0.18878855
233	0x3f236b5d	0.638357
234	0x3d5ea76f	0.054358896
235	0xbe509eee	-0.20373127
236	0xbdbe2028	-0.09283477
237	0xbe22f314	-0.1591304
238	0xbdeaed6a	-0.114710644
239	0xbe58268f	-0.21108459
240	0xbd2a62ad	-0.04159801
241	0x3b8df27a	0.004331884
242	0x3d19d971	0.037560884
243	0xbea21482	-0.3165627
244	0xbe3027ea	-0.17202726
245	0x3cae42a9	0.02127202
246	0x3e4f2bf7	0.20231615
247	0x3e1f3687	0.15548144
248	0xbda8d8d6	-0.08244483
249	0xbc2d2485	-0.010567789
250	0xbf518811	-0.81848246
251	0xbe1a432d	-0.15064688
252	0x3dd62fc4	0.10458329
253	0x3e2651f4	0.162422
254	0x3d92e4b3	0.07172527
255	0x3dc89a55	0.097950615

bias f4 [20]
0	0x3f74d4e1	0.9563733
1	0x3fa3d2a9	1.2798663
2	0xbdaf88c1	-0.085710056
3	0xbe363b33	-0.1779602
4	0xbf9e0793	-1.2346061
5	0xbf485dc4	-0.78268075
6	0x3f6d4234	0.9267914
7	0xbe5c1d83	-0.21495633
8	0xbd9b0960	-0.075701475
9	0xbe26eb17	-0.16300617
10	0x3f107448	0.5642743
11	0x3f48d8cf	0.78455824
12	0xbf6441d8	-0.8916297
13	0xbe2df938	-0.169896
14	0xbede5eef	-0.43431804
15	0xbfc3fbf4	-1.5311265
16	0xbfb89a48	-1.4422083
17	0xbe163faa	-0.14672723
18	0x3df3707e	0.118866906
19	0x3fac142a	1.3443654

weight f4 [2, 20]
0	0x3dcc7efd	0.099851586
1	0x3ea2c486	0.3179056
2	0xbe1499ba	-0.14511767
3	0x3e159943	0.14609246
4	0xbf471920	-0.7777271
5	0x3c6e1d23	0.014533314
6	0xbd3d9dfc	-0.046293244
7	0x3df0ed9f	0.117640726
8	0x3e889fc6	0.26684397
9	0xbdd0a08f	-0.10186874
10	0x3f2ee7a3	0.683222
11	0x3dac856d	0.084238864
12	0xbe64e886	-0.22354326
13	0x3c95a5ec	0.018267594
14	0x3c2d1cdf	0.010565965
15	0xbe10bb32	-0.1413391
16	0xbe099e5c	-0.13439316
17	0xbd7be6cc	-0.061499402
18	0x3d64a93e	0.055825464
19	0x3ea02b58	0.3128307
20	0xbdba3671	-0.09092415
21	0x3d5c34c5	0.053761262
22	0xbdc4e321	-0.09613634
23	0x3d63380f	0.055473384
24	0x3eed59ab	0.46357474
25	0x3e516efb	0.20452492
26	0xbdf59d97	-0.119929485
27	0x3daa5aa3	0.08318069
28	0x3e1ae959	0.15128078
29	0xbe259181	-0.16168787
30	0xbf3c3849	-0.73523384
31	0xbe0d0ea9	-0.13775124
32	0x3da43977	0.08018773
33	0x3d0bec76	0.034161054
34	0x3dac6658	0.08417958
35	0x3e925f39	0.28588274
36	0x3e885ed0	0.26634836
37	0x3dbefcc0	0.09325552
38	0x3d668509	0.056279216
39	0xbe6dcef1	-0.23223473

bias f4 [2]
0	0x3f6a7b62	0.9159452
1	0xbfa169f0	-1.2610455
