HousePrice.pt (torch_old, 60810 bytes, 21 tensors)

weight f4 [15, 8]
00000000: 12d6 45bd d988 a73d ee0f 99bc f2ae 83bd
00000010: 9aed 583e 9052 543d a11a a83c 914b 4ebd
00000020: 730a 223f 76f5 843f 11fe 643e 1752 72bf
00000030: 23eb df3d 8957 dc3d 3f03 86be 3c87 a53e
00000040: 185e 04bf 3c5c 5bbf 7d73 993d 9533 8dbf
00000050: 3246 4e3e 66fe adbf 0b10 0fbe 88c2 5b3f
00000060: d488 dbbe bd9d bb3e e026 39bd 1d4f c63e
00000070: e131 bbbd 8ee7 1abf 759b df3c 81e5 b43f
00000080: 7240 393c 962e 213b bc3a 07bf 76ef 21bf
00000090: 19ed 443e 0e9e 2dbf 066b 8e3f fb9f a3bf
000000a0: 0ce7 333e 49d0 183d b6c3 97bc a080 2d3d
000000b0: 71a4 afbd 8c10 733d 9cbb 563d 6f51 a6bc
000000c0: cd72 2fbf 42a4 eebf 0cdd 73bd 3269 1b40
000000d0: 3485 eabd 71cf e9bc b84a a2be ac4e 063e
000000e0: 3838 eabe b0a8 6e3e 3d35 9c3e 8c2e 2dbf
000000f0: cf57 b6be 5e4e cebf ce45 c0be 1cd5 d93e
00000100: b9bb 0ebe 25d2 083e 2592 583d 0865 8e3d
00000110: bc2b d8be a57f 153e 2130 d4bd 9816 433c
00000120: 6c6f e3bd bda5 2bbe 0c85 75be f871 283e
00000130: 4e9c 9abf 36a9 373e 433a 803f fa0a 833e
00000140: c41f 893f dc0f d23f e4f8 83c0 930d c73b
00000150: 5115 053f 7a37 5a3f 4cb0 1640 6fdb 95c0
00000160: b3ba fdbe 8ab6 79be 0e5e a23d 872d 553e
00000170: 9390 40bf a469 d6be a824 3dbe e5e5 cd3d
00000180: 0e27 2e3e 9105 0abe 0b9f 5abe 8872 05bf
00000190: 01bf 7a3e a058 39bd 0f95 9c3f 7857 ebbe
000001a0: e353 a13f e9ab 4c3f d693 8ebd 5e9a 78bd
000001b0: 6270 2d3e 0e11 ad3e a44c bfbe 52d5 abbd
000001c0: 74f7 1b3f 3a6a d6bd cfeb 08c0 27cd e7bf
000001d0: aa7e 0b3f 8db0 4dbe 1a77 be3f fd37 0fc0
-0.048299856 0.081803985 -0.018684354 -0.064298525 0.21184388 0.05183655 0.02052051 -0.050365034
0.63297194 1.0387409 0.22362544 -0.9465651 0.10933521 0.107588835 -0.26174352 0.32329738
-0.51706076 -0.85687613 0.07492731 -1.1031367 0.20143965 -1.3593261 -0.13970964 0.85843706
-0.4287783 0.36643782 -0.04520309 0.38732234 -0.09140373 -0.60509574 0.027295807 1.4132539
0.011306869 0.0024594418 -0.52823997 -0.63256013 0.1923107 -0.678193 1.1126411 -1.2783197
0.17568606 0.03730801 -0.01852594 0.042358994 -0.085762866 0.059341952 0.052425012 -0.020302502
-0.6853455 -1.8643878 -0.05953698 2.4282956 -0.11451188 -0.028541299 -0.3169763 0.13115948
-0.45746017 0.23306537 0.30509368 -0.6764915 -0.35613868 -1.6117666 -0.37553257 0.42545402
-0.13938798 0.13361414 0.05287375 0.06952864 -0.42220867 0.14599474 -0.10360742 0.011907242
-0.111052364 -0.16762443 -0.23976535 0.16449726 -1.207895 0.17935643 1.001778 0.25594312
1.0712819 1.641109 -4.124132 0.006074616 0.5198565 0.852409 2.3545103 -4.6830363
-0.49556503 -0.2438604 0.07928096 0.20818149 -0.752206 -0.41877472 -0.18471014 0.100536145
0.17007086 -0.13478686 -0.21349733 -0.52127886 0.24486925 -0.045250535 1.2232989 -0.4596517
1.2603725 0.79949814 -0.06961791 -0.06069409 0.16937402 0.33802074 -0.3736316 -0.08390297
0.6092446 -0.1046948 -2.1393926 -1.8109483 0.5449015 -0.2008688 1.4880097 -2.2377923

weight f4 [5, 3]
00000000: 1dad 6340 a248 ac3f c06d 8b3f b766 4ebe
00000010: ea66 4fbf e30f 4e3e 14d8 8ebe 792c c63e
00000020: 98b3 1a3f 4a79 91bc 8046 b9bc 391b c1bc
00000030: 61e2 313f 6308 df3d 6776 8fbf
3.557441 1.3459666 1.0892868 -0.2015637 -0.8101641 0.20123248 -0.2789923 0.38705805
0.6043029 -0.01775803 -0.022616625 -0.023572551 0.6948605 0.108902715 -1.1208009

weight f4 [2, 1]
00000000: f3c6 1840 2273 a73b
2.387143 0.0051101604

weight f4 [4, 2]
00000000: ce14 193e 0522 8cbe bac2 243e 5958 94be
00000010: b627 54c0 180e 5cbe b09a d2be aa68 e53e
0.14949343 -0.27369705 0.16089907 -0.28973654 -3.3149238 -0.21489751 -0.41133642 0.44806415

weight f4 [5]
00000000: 1ead 1e3f 9301 d43e 7301 a33f d21a 823f
00000010: 99a9 0340
0.61982906 0.4140745 1.2734817 1.0164435 2.0572264

bias f4 [5]
00000000: 0215 0a3d c04c 6ebf 15fe d9bf b2f9 83bf
00000010: b8c3 0040
0.03371144 -0.9308586 -1.7030665 -1.0310576 2.0119457

running_mean f4 [5]
00000000: 6529 8c42 90e7 1b46 c6c2 9044 25cb ab43
00000010: 5c82 4542
70.08085 9977.891 1158.0867 343.58707 49.377304

running_var f4 [5]
00000000: 14f6 1044 0952 774c e728 0f48 9571 3848
00000010: 9a63 7a44
579.845 6.4833572e+07 146595.61 188870.33 1001.5563

weight f4 [100, 19]
00000000: ca84 cd3e e4fa d03e 814b 9dbe 2c4f 8f3d
00000010: 9fe4 923e 8193 ab3d a4e0 243e 185e f4bd
00000020: e617 943f c196 5b3f 1f57 7dbf 1e54 7e3f
00000030: c00e 0cbf 137b ba3e 37cd aebe 0cd6 1bc0
00000040: df07 c8bf f49a e6bf f087 453f 00e8 0d3f
00000050: 816d 90be dabc 4abf 86fb c2be 8991 113f
00000060: be79 953e 1db7 0cbe e70e 4abe 3067 703f
00000070: 4efe 8e3e 17a7 38bf 0b4b 9b3d 5922 39bf
00000080: ff12 0b3f 0eac 0cc0 0301 1e3f b894 02c0
00000090: 4641 08c0 846f d53e 8f42 1cbf 00e7 aabf
000000a0: e6b2 f53e ca4a b2bc 2080 72bf e975 3abf
000000b0: 45c7 1bbf 937b 183f d2d7 8b3e e2f8 593f
000000c0: 99d4 7dbb b4b5 343f 6dc2 873f adc7 8bbf
000000d0: cccc ac3f 6f7f 3b3f e0e2 24c0 3535 debf
000000e0: a134 3abc 81ba 6ebe d6eb 3b3d 54aa 30be
000000f0: e927 30be 3895 c53e aa34 ba3c 7eff c7be
00000100: 013a e03c e88a ab3e a698 f03e 311b b1be
00000110: 9428 e83e aec6 8dbe 8d38 aa3d f546 6f3e
00000120: 1c33 afc0 3e1f a4bf 2448 cfbf 225e 4f3f
00000130: bca1 b03f 9ee8 8b3f cd1e 6bbf 7c10 5f3d
00000140: 323b 39bd 1306 353f 3f21 183f b5d6 c3be
00000150: 8b52 2d3f 05de 273f 1a81 b0bb 1016 a53e
00000160: c997 1dbf b8b7 353f 6720 2abd 17e7 2bc0
00000170: a8cc 8abf 0d4a bebf 87dd 4b3f 6891 8fbe
00000180: d5ea 60bd 7250 91be 9df4 d23d 0309 c8bd
00000190: 4e34 08bf 0a1a 91bd e74e 953e 4ec5 febc
000001a0: efdd cb3d 2424 06be b972 acbe 4cba 3a3e
000001b0: a77b 8abe fa37 d5bf e86d 4ac0 625b 613f
000001c0: c5b2 a13f 3dc8 1ebf bb04 c2be d78a 96be
000001d0: 8d8e 54bd ef6f aebd 06c6 573f 09d3 42bf
000001e0: 90c6 8bbd dc3a 143d 575d 5dbe c754 a63f
000001f0: 24ab 223e 7b07 e03e 7b22 df3e 1570 0abe
00000200: 84ed e4be 4f84 f03f c72f 16c0 07c3 72bf
00000210: 535e acbe 6857 623f fe8e 903f 257c efbe
00000220: 967a 6e3f d832 973e e81f 533f a69c bf3d
00000230: 3a4b bdbd c73f 163f 0a15 6abd 3676 e8bd
00000240: 9f71 723f 3d77 cdbd 6214 6d3d 5327 3f3f
00000250: 82df 7dbf d057 813f f8ca 423f 2696 74c0
00000260: 0375 e93f 4f06 283f 7959 36bf 084c 3a3d
00000270: 7f96 92bd 1872 1e3f c338 f33e f09b 11bf
00000280: 4c84 883e 674b 9cbd 02c2 573e 7aa6 3c3f
00000290: 326e 44bf 928e b13e 6016 553f 8200 a0c0
000002a0: d17a 58bf 595a bebf 0b93 683f 8005 823d
000002b0: d6d9 38bf 88e8 b33f 55f8 b73e 0ab1 e83e
000002c0: 811b 963e fd34 a8bf f426 a63f 786e acbe
000002d0: 3d26 e53e ce20 fd3e 258d 983e 1711 7cbe
000002e0: acf0 9a3e a959 c4be 806e 023f 29b9 263f
000002f0: 21f2 133f 1fbd 95bf d665 ee3e c658 14c0
00000300: a319 26bd 264e b4bf 0b65 173e b477 9cbd
00000310: 21e5 1a3e cc56 873d a74e 5dc0 f815 893f
00000320: ce2e fe3f 7b83 4cbf bb86 83be 6fe5 81bd
00000330: f2b2 3ebf 7a73 093f cf1e 393f 82ee ec3e
00000340: 304c 92bf 1b7f b93f 428c 463f 5d4d 3abf
00000350: 3a5d c9bd 1d59 c7bc 78a3 113f ebd2 f33e
00000360: 6912 1ebf 5fb9 fd3e a133 013f a27d 053e
00000370: d064 1a3f d385 f2be d53a 173f dc76 0a3e
00000380: 5942 1bc0 2209 83bf 082d dcbf 7ae5 663f
00000390: 7609 c53e f4f6 93be 05b1 3bbe 6eb4 e83e
000003a0: 76d7 f93e 061c 983e 6fde bf3e c812 f3be
000003b0: 9e3f 793f 89b4 733f 7dd8 65bf 7442 3b3f
000003c0: 10e2 953e 85d7 573e fe71 353f 59d8 bcbe
000003d0: 7b22 f8bf 3659 24c0 ff9e 093f 5534 953e
000003e0: 7cb4 443e 0f7e 9abe 3817 71bd 196f ac3d
000003f0: 0b7d 2abe b5c8 31be 0cb7 813d 59d3 9f3e
0.40140373 0.40816414 -0.30721667 0.06997523 0.2869005 0.083777435 0.16101319 -0.119320095
1.1569793 0.8577691 -0.9896106 0.993471 -0.54710007 0.36422023 -0.34140942 -2.4349394
-1.5627402 -1.8016038 0.7716055 0.5543213 -0.28208545 -0.79194415 -0.38082522 0.56862694
0.29194444 -0.13741727 -0.19732247 0.9390745 0.27928394 -0.7212996 0.07582673 -0.72318035
0.5432586 -2.1980014 0.61720294 -2.040327 -2.128984 0.41686642 -0.6103906 -1.3351746
0.4798805 -0.021764178 -0.94726753 -0.72836167 -0.60850936 0.5956356 0.27313095 0.8514539
-0.0038731454 0.70589757 1.0606209 -1.0920311 1.3499999 0.73241323 -2.5763474 -1.7359987
-0.011365087 -0.23313333 0.045879208 -0.17252475 -0.17202725 0.38590407 0.02273019 -0.39062113
0.027371408 0.33504415 0.46991462 -0.34591058 0.4534346 -0.27690643 0.083115675 0.23366912
-5.474989 -1.2822034 -1.619389 0.8100301 1.3799357 1.0930364 -0.91843873 0.05445908
-0.04522247 0.70712394 0.5942573 -0.38249746 0.67704076 0.6557315 -0.005386484 0.32243395
-0.6155973 0.7098346 -0.041534808 -2.6859796 -1.0843706 -1.4866349 0.796349 -0.28040624
-0.054911453 -0.28381687 0.103005625 -0.09767344 -0.5320481 -0.07085045 0.2916176 -0.031099942
0.0995444 -0.13099724 -0.33681276 0.18235129 -0.27047464 -1.6657708 -3.1629581 0.88030064
1.2632681 -0.6202429 -0.37894234 -0.294028 -0.05189376 -0.085174434 0.84286535 -0.76103264
-0.06824982 0.036188945 -0.21617638 1.2994622 0.15885597 0.43755707 0.43580994 -0.13519318
-0.4471246 1.8790377 -2.346666 -0.9482884 -0.33665714 0.8841462 1.1293638 -0.46774402
0.931558 0.29530978 0.8247056 0.0935605 -0.09242864 0.58691067 -0.05714897 -0.11350672
0.9470462 -0.100325085 0.057880767 0.7466938 -0.9916917 1.0104923 0.76090956 -3.8216643
1.8238834 0.65634626 -0.71230274 0.045482665 -0.07157611 0.61892843 0.47504243 -0.56878567
0.26663435 -0.07631569 0.21070102 0.73691523 -0.76730645 0.34679085 0.83237267 -5.000062
-0.845624 -1.4871322 0.9084937 0.06348705 -0.7220739 1.4055338 0.3593165 0.4544757
0.2931786 -1.3141171 1.2980638 -0.3367803 0.44755736 0.4943909 0.29795185 -0.24615894
0.30261743 -0.38349655 0.5094986 0.6512628 0.57791334 -1.169834 0.4656207 -2.3179183
-0.040551793 -1.4086349 0.14784639 -0.07640019 0.15126468 0.06608352 -3.4579256 1.0709829
1.9858034 -0.79888123 -0.2568873 -0.06342589 -0.744918 0.5369183 0.72312635 0.46275717
-1.14295 1.4491915 0.77557766 -0.72774297 -0.09832235 -0.024334485 0.5689006 0.47621855
-0.6174684 0.4955549 0.50469404 0.13036206 0.6031008 -0.47367725 0.59074146 0.13521904
-2.4259245 -1.0237162 -1.7201242 0.90193903 0.3848378 -0.28899348 -0.18329246 0.45450157
0.48797196 0.2970888 0.3747439 -0.47475266 0.973627 0.9519735 -0.8978346 0.73148274
0.29274035 0.21078308 0.70877063 -0.3688381 -1.9385523 -2.567945 0.53758234 0.2914149
0.19209474 -0.301743 -0.058860034 0.08419628 -0.16649263 -0.1736172 0.063337415 0.31215933

bias f4 [100]
00000000: 2349 d740 f75e d4bf 4c47 e3bf 651c 4440
00000010: 8d4c ab40 ed06 28c0 06c0 6ac0 a080 153f
00000020: f97d 1140 4baa 6040 7e38 6740 04eb b540
00000030: e85d c0bf 9568 ca40 4ea6 c940 88b4 dc40
00000040: 20c0 19c0 7053 42c0 3dfb 30c0 76df dcbf
00000050: cbec 00bf 49d1 0fc0 5d7f 60c0 64e4 27c0
00000060: 0cf2 05c0 8c91 b1bf 0826 b2bf 674d f0be
00000070: 3b93 17c0 3731 59c0 d1a8 f33f c87d 37c0
00000080: 27e7 cd40 7559 8240 8370 5440 13e7 43c0
00000090: 0334 f9bf 0737 efbf 233c acbf 3c80 3040
000000a0: eaf9 3840 5cd9 9c40 1e8d 29c0 8671 b540
000000b0: cb43 3b3f 9c0f db3e c317 9440 6ce1 a240
000000c0: 466f 4240 af74 b040 726e 513e d794 bbbe
000000d0: 350d eabf cc09 ae40 eb85 aa40 5cfd 403f
000000e0: e97c 83c0 3ec3 3b40 e89e a2bf 60bb 8abf
000000f0: 51d6 ca40 af88 7140 0fac 01c0 1046 f9bf
00000100: 0ad8 adbf 0a0c c740 018c 253f 7f26 a83f
00000110: 9545 3940 4a7b a43f 3405 3e40 94b9 4340
00000120: e79f 01c0 5633 4240 5404 b8bf 2522 5640
00000130: 4acf de40 3e67 e8bf 372d aabf 2289 5b3f
00000140: 089e ccbf c9c6 99be aa0c bfbf 0947 ea3f
00000150: 5822 5fbf 2459 dbbe 83bd 3d40 46c6 cb40
00000160: 1b39 803e 26d0 5440 922d 3440 1dcf bd40
00000170: 3c3b 1cc0 203c 04c0 c94f 8ebf ed1b ddbf
00000180: d4fe 9b40 6c2f 70c0 fcaf 0ac0 8849 3f40
6.727678 -1.6591481 -1.7756133 3.064233 5.3530946 -2.6254227 -3.6679702 0.5839939
2.2733138 3.5103939 3.612823 5.6849384 -1.5028658 6.3252664 6.301551 6.8970375
-2.4023514 -3.0363426 -2.7653344 -1.7255695 -0.5036132 -2.2471488 -3.5077736 -2.6233149
-2.0928984 -1.3872542 -1.3917856 -0.46934053 -2.3683612 -3.3936288 1.9035894 -2.867052
6.434467 4.07342 3.3193672 -3.0609787 -1.9468998 -1.8688668 -1.3455852 2.7578268
2.8902535 4.901533 -2.649238 5.670108 0.7315032 0.42785347 4.6279006 5.0900173
3.0380416 5.5142436 0.20452288 -0.36636993 -1.828528 5.438696 5.3288474 0.75386596
-4.108998 2.9337916 -1.2704744 -1.0838432 6.3386617 3.7739675 -2.0261266 -1.9474506
-1.3581555 6.2202196 0.64666754 1.3136748 2.894872 1.2850125 2.9690676 3.0582018
-2.0253847 3.0343833 -1.4376321 3.345834 6.962804 -1.8156507 -1.3295048 0.85756123
-1.5985727 -0.30034474 -1.492574 1.8302928 -0.8716178 -0.42841446 2.9646919 6.3679533
0.25043568 3.3252044 2.8152814 5.9315324 -2.4411154 -2.0661697 -1.1118098 -1.7274147
4.874857 -3.7528944 -2.1669912 2.988863

weight f4 [100]
00000000: d32f 993e c3c4 d53e 8a60 d93e 9aa3 7e3e
00000010: 135f 863e e675 da3e 0f07 9a3e d4c3 b23e
00000020: ef15 7b3e b6de 913e 772f 98be 18cb 703e
00000030: c374 bb3e 2c2f 543e a5aa 8dbe 1792 8fbe
00000040: aed3 c03f 4b49 bb3f 261f 673f e4ad b13f
00000050: 4d4b b53e cafd 823e af00 063f 041f 483f
00000060: 2b4d 9a3e 19a3 7e3f 84a7 d83f be2d 203f
00000070: edb3 d03f 22ad c83e adb3 9a3e d041 a13f
00000080: 7bcf 6dbe 1fca 8b3e 16ad 793e 83a2 9b3e
00000090: c11a 2e3f 94c7 d3be f538 a23f 1852 a53e
000000a0: 8b13 b93e fc38 913e e99a 153f d254 7dbe
000000b0: 22ae 933e 2791 0e3f 29fa 9c3e 4bc2 993e
000000c0: c398 4e3e b923 663e 3979 bf3e 3b2b 133f
000000d0: 1f8a a6be 8245 a53e 12b1 9c3e 1166 833e
000000e0: a91f 7b3e 769f b03e 4811 4f3e 2a41 a63e
000000f0: 745c 9b3e 31b4 893e c323 273f 5d24 9fbe
00000100: d453 043e 6cc6 49be 7cdd 8d3e 9367 643e
00000110: 53f0 a93e e9d6 7e3e ef44 4c3e f225 7a3e
00000120: 40fd 423b 8abb 9c3e 19be 913f 584b 783e
00000130: b14e a23e df14 073f 28e6 9e3f 27fe b33e
00000140: 8a8c a43f c241 5a3f f356 1b3f 9e1b 643e
00000150: 3802 8b3e d772 263f 02d7 bf3e 230e ac3e
00000160: e17b 383f 7d2a 553e 5fba abbe 087d 8b3e
00000170: 7e33 b53c df5d 933f 130d 8e3e 4cfe d23e
00000180: c7b5 a03e 5800 133f c574 b53e ada4 833e
0.299193 0.4175168 0.42456466 0.24867097 0.2624441 0.42668074 0.3008351 0.3491503
0.24520086 0.28490227 -0.29723713 0.23514974 0.3661252 0.2072112 -0.27669254 -0.28041145
1.50646 1.4631742 0.90281904 1.3881192 0.35409012 0.2558425 0.52344793 0.78172326
0.30137 0.9946762 1.6926122 0.625698 1.6304909 0.3919459 0.30215207 1.2598209
-0.23223679 0.27302644 0.24382433 0.30397424 0.68009573 -0.41363204 1.2673632 0.32289195
0.36147723 0.28363788 0.584395 -0.24739388 0.2884379 0.55690235 0.30659607 0.30031046
0.20175461 0.22474565 0.37397173 0.5748784 -0.32527253 0.32279593 0.30603844 0.25663808
0.24523796 0.3449666 0.20221436 0.3247159 0.30343974 0.26895288 0.65288943 -0.3108243
0.12922603 -0.19704598 0.27708042 0.22305135 0.33191165 0.24886669 0.19948171 0.24428537
0.0029753 0.3061183 1.1386138 0.24247491 0.31700662 0.5276622 1.2413988 0.3515484
1.2855389 0.8525659 0.6067955 0.2227616 0.2715013 0.6501898 0.37468725 0.33604535
0.72064024 0.20816989 -0.33540627 0.2724383 0.02211928 1.1513022 0.2774435 0.41209638
0.31388685 0.574224 0.3544065 0.25711575

bias f4 [100]
00000000: 5275 26bd 472a bf3e 530f 913e 81ec a4bc
00000010: 5b9b 7f3e d9c8 2e3d a7a9 2f3d 19e0 473d
00000020: 1704 393e c116 57bd 1f92 bb3d 79e8 2d3e
00000030: 3c96 4b3e 5ad4 6fbc afac 36be 25c5 6b3d
00000040: 91db e03c 63d4 97bc f144 693e d83d 2d3d
00000050: ca92 11bd a1d1 0c3d 6bf9 fb3c 8d49 343e
00000060: 4d8d 7e3e 96dd 8fbd 6c12 933c 0ffe bf3d
00000070: 75eb 983d c09f 4f3d 2c2c 05be c013 a2ba
00000080: 2609 c7bd b616 f4bd 4531 dbbd d65f 183e
00000090: 5ff4 f83c 2eec f2bc 87fc b63d ae9f 193e
000000a0: 9333 023d 55b5 153e f7c4 32bd 39ab d1bd
000000b0: 8d2a 8bba 2eec 383e c819 783e e1a1 3e3e
000000c0: 92ff 1e3c 91f2 f23d 4dc5 fa3c 3d71 9e3d
000000d0: 845a 9dbe a8f3 fb3d 182e 283e b928 963b
000000e0: 5261 95bc eff8 053d 9028 273d 9add b4bd
000000f0: 77fb d03d 858c cabd 6941 a53c d6ed 81bd
00000100: 41d5 b3bc f017 b1bd 3080 3ebc 5b66 96bd
00000110: 05b7 ba3d fd82 33bd dfa9 a2bc 4b1e 353e
00000120: d1a1 e2bd 4f2e 723d 2967 d0bb 00b5 f4bd
00000130: 22b5 873c 27cc 973e 2d98 9a3d 9eef 483d
00000140: b113 053e ea8c ab3d 9777 693d 605c 0ebe
00000150: 5019 5b3e b8f3 d13d a8b5 f33c 4167 863d
00000160: 85cb 4c3e a299 3c3e 8fd3 8ebc 284d fe3d
00000170: ac74 01be 23ee 8c3d 09e8 633e 9e68 aa3e
00000180: 8772 d73d dd17 bb3d 84ba 28bd dc63 8d3c
-0.04063923 0.37336943 0.28332004 -0.020132305 0.24961607 0.042672012 0.042886402 0.0487977
0.18067966 -0.052511934 0.0915873 0.16983213 0.19881529 -0.014638031 -0.17839311 0.05756106
0.027448447 -0.018533891 0.22780205 0.042295307 -0.03554038 0.034379605 0.03075858 0.17606182
0.2485859 -0.07024686 0.01795312 0.0937463 0.07466785 0.05068946 -0.13005131 -0.0012365505
-0.09718542 -0.11918394 -0.10702757 0.14880309 0.030389963 -0.029653635 0.089348845 0.15002319
0.031787466 0.14619954 -0.04364487 -0.10237736 -0.001061754 0.18058845 0.24228585 0.1861644
0.009704487 0.11862672 0.030611658 0.07736442 -0.3073312 0.12302333 0.16423833 0.0045824912
-0.018234883 0.032708105 0.040810168 -0.0883133 0.10204213 -0.09890083 0.020172792 -0.06344192
-0.021952273 -0.08647144 -0.011627242 -0.073437415 0.091169395 -0.043826092 -0.019856391 0.17687337
-0.1106602 0.059126195 -0.006359954 -0.119485855 0.016565863 0.29647943 0.075485565 0.04905664
0.12995793 0.083764866 0.056998815 -0.13902426 0.21396375 0.10251564 0.029749706 0.06562663
0.19999512 0.18417981 -0.017434863 0.1241706 -0.12642163 0.068813585 0.22256483 0.33282942
0.10519891 0.09135411 -0.0411935 0.01725953

running_mean f4 [100]
00000000: 5388 7c41 1818 ad40 77ea 5c40 8723 5c41
00000010: 201b 5d41 7b52 883c a016 013f 08c4 b93e
00000020: e74f 4941 e4c8 323f d4f0 493f 274b 6241
00000030: 5df3 d440 8cdc 6641 4c9b 7441 197b 6b41
00000040: d5e6 833a 9c2e 153b cd09 013f 0b23 c83a
00000050: e372 083e 0ff8 0c3d 9f63 a73c e518 513e
00000060: 73db b040 0400 0000 c4d9 a63a 8514 043e
00000070: c06b 6b3b 8ee4 553e 8fd3 4841 f5ae 791e
00000080: 9688 6341 82e9 4841 c42f 253f 1272 3c3e
00000090: 5566 fd3c 4f52 d33d 8f79 aa3c 3a34 4a41
000000a0: 1d69 813e deed 5541 562e 243d 464d 6841
000000b0: 8744 bf3e 00b5 1d40 2053 5e41 4488 5441
000000c0: ee79 5541 c331 5a41 5f2e c13d 16f5 d33d
000000d0: ff04 c440 985c 5f41 ae74 5e41 bfcc 913e
000000e0: f201 803e 71d4 a33e cbed a340 19d2 7d3d
000000f0: d7fb 6f41 24f9 563f 428c 162c 0400 0000
00000100: 6698 2e40 6fcf 6c41 0a57 a03e 6d49 133f
00000110: 85cc af3e cca5 3a41 b30e d13e 8927 5041
00000120: 180b a532 ecc7 5641 0400 0000 b046 373f
00000130: 98ba 6741 51a1 1440 291a 363c 0c2f 423e
00000140: 0400 0000 6c55 363d 0400 0000 4169 3a3f
00000150: 4652 c740 ed65 0d3e 5882 8f3e d7a8 6f41
00000160: bc16 353f f59e 5641 24f2 543e 5991 6341
00000170: 246a 7114 9f29 db3c d6cc d140 be08 b040
00000180: 90e8 5941 95a9 5d3c 0400 0000 d3c0 5341
15.783282 5.409191 3.4518106 13.758674 13.819122 0.016640892 0.5042515 0.36282372
12.582007 0.69837785 0.788831 14.143348 6.6547074 14.428844 15.287914 14.717553
0.00100633 0.0022763377 0.5040558 0.0015269233 0.13325076 0.034416255 0.020433245 0.20419653
5.526788 6e-45 0.0012729694 0.12898453 0.0035922378 0.20887968 12.55165 1.32181305e-20
14.220846 12.557009 0.6452601 0.1840289 0.030932585 0.103184335 0.020809917 12.637751
0.25275508 13.370573 0.040083252 14.518866 0.3735697 2.4641724 13.895294 13.283268
13.342268 13.637149 0.09432673 0.10349481 6.12561 13.960106 13.903486 0.2847652
0.25001484 0.31998017 5.1227775 0.061967943 14.998984 0.8397391 2.139414e-12 6e-45
2.7280517 14.800643 0.31316406 0.57533914 0.34335724 11.665478 0.40831527 13.009652
1.9213573e-08 13.423809 6e-45 0.71592236 14.483055 2.322346 0.0111146355 0.1896326
6e-45 0.04451506 6e-45 0.72816855 6.228793 0.13808413 0.28029132 14.978721
0.70737815 13.413808 0.20795494 14.222985 1.2188323e-26 0.026753245 6.5562544 5.501067
13.619278 0.013529201 6e-45 13.234576

running_var f4 [100]
00000000: c0f3 9541 9c8e 7741 29f7 df40 3306 5f41
00000010: d926 9a41 ec6e 8f3c adc3 5d3f 240f 763f
00000020: 6303 8d41 cdae 933f bbcc af3f 4fef 9841
00000030: 81b7 5c41 2d75 3641 c2a9 9641 79a7 3341
00000040: c696 973a ee28 c13b d379 0840 8a74 2d3b
00000050: c152 0f3f b7bb d43d 59cb a63d 1e62 373f
00000060: 2d29 6241 0400 0000 1036 b63a 43f8 4d3f
00000070: a2f0 153c 1fa2 a63e 9690 7241 2fd1 f11d
00000080: c70f 4e41 0d39 8141 f3ee 7d3f ff29 3b3f
00000090: b928 393e 0467 9a3e 34a2 b43d 6f32 4341
000000a0: 0596 5d3f c878 8841 3e06 483d 5117 5e41
000000b0: fb3d 8b3f e76d 0041 59a6 9f41 753b 7d41
000000c0: 0f06 7941 a88e 3d41 d180 a63e 61fd 0c3f
000000d0: 6308 8141 6ee4 4c41 23b3 4d41 55fd 513f
000000e0: 0fae a03e 60bf 333f 49f7 6d41 ba40 6a3d
000000f0: a4f9 4a41 e06e b93f 07c4 a028 0400 0000
00000100: 48c5 be40 af50 7041 7720 613f bed0 af3f
00000110: 186b a73f 1ba6 6241 f851 5f3f e142 2a41
00000120: 32da 3a2e eab2 3941 0400 0000 3bc0 8d3f
00000130: 5cd4 4041 0424 a140 8ad8 fb3c 9d38 483f
00000140: 0400 0000 abfa 243e 0400 0000 e799 cd3f
00000150: 543e 5e41 f623 643f 64ce 263f bab6 3c41
00000160: 3694 2140 b69a 5441 444c 363f 21a0 5641
00000170: bdc0 8e14 82e9 063e 9040 8641 aee7 8141
00000180: 2e76 8f41 00fe 4e3d 0400 0000 15bf 6041
18.744019 15.472317 6.998921 13.9390135 19.268969 0.017508946 0.866267 0.9611685
17.626654 1.153772 1.3734354 19.11685 13.794801 11.403607 18.83289 11.228387
0.001156532 0.005894772 2.1324356 0.0026467168 0.5598565 0.10387366 0.08144254 0.7163409
14.135053 6e-45 0.001390161 0.8045694 0.00915161 0.32545564 15.160299 6.400846e-21
12.878852 16.152857 0.9919273 0.73110956 0.1808194 0.3015672 0.0882 12.199813
0.86557037 17.058975 0.048834078 13.8806925 1.087829 8.026832 19.956224 15.827016
15.563979 11.847328 0.32520154 0.55074126 16.129095 12.805769 12.856235 0.8202718
0.31382796 0.7021389 14.872872 0.057190634 12.685947 1.4486961 1.7848582e-14 6e-45
5.961582 15.019698 0.8794016 1.3735578 1.3079557 14.165553 0.8723445 10.641328
4.24853e-11 11.60618 6e-45 1.1074289 12.051846 5.0356464 0.030742902 0.78211385
6e-45 0.16111247 6e-45 1.6062592 13.890217 0.8911737 0.6515868 11.794611
2.524671 13.287771 0.7121012 13.414094 1.4414358e-26 0.13175014 16.781525 16.238125
17.932705 0.050535202 6e-45 14.046651

weight f4 [50, 100]
00000000: b3dd d03e 70f5 db3e b812 043f 896f fbbd
00000010: 193b be3e 1d45 093f 17a7 923d 8a32 b4be
00000020: 0337 46be 8a06 ee3d 637c 523e bd69 6e3e
00000030: 9830 3e3e ad54 0c3e 03ed a6be ec15 7cbe
00000040: 97a5 a5be 6a27 edbe d488 29be 3154 65bf
00000050: 32d8 f83d 172a 8ebe c42c a1be df5b 203e
00000060: 944e 913e 53a0 673f 8b3d 9c3f 3a4d dbbf
00000070: 8900 8cbe 1ba5 3e3e c530 153f 8b35 63be
00000080: dd60 38bd 6e6d 37be a732 a2be 85cc 81bd
00000090: 79f2 40bf 3666 213e 96d7 00be 592a ac3e
000000a0: 6f3c 1b3e 34f2 0d3f 6f4d b4be 6db4 8ebe
000000b0: b211 393d 6064 063e 32d3 6dbe b592 ac3e
000000c0: dbd4 82be 508e e4bd eaeb 333e b6f8 fdbf
000000d0: 6e47 d0be eaef bebe 17ec 923e 9b0c 0cbf
000000e0: c9b3 133e 3418 e33d af77 ab3d 7c51 9cbf
000000f0: 1bf0 433d 4097 013e 3e05 f5be 7b2a d33e
00000100: b33a 21bf 2715 a33e d161 a1be 8123 d4be
00000110: 9086 25be 8d8a f6bd dba5 ebbe e105 09be
00000120: 4a74 443f 6ecb c13e e57c 473e ee1e aa3e
00000130: 9adf 273f 905f 0c3c 7ac1 95bf a06b 52bf
00000140: 88ec 1e3b 1742 b83e f7e2 e73e e25d a3bd
00000150: 3604 97be 5266 05c0 5b32 b7bd 29b2 b33e
00000160: 5dbc cf3d dec5 3abe df26 95be 764d d0bd
00000170: a839 dbbe 62ca 30be b57f 083e 72d1 2a3c
00000180: 8d85 8c3e ccfd 2ebf 168c b2be 107d dd3c
00000190: e8cc a5bf d9b7 00bf c8a6 583f 1f53 d1be
000001a0: 6db0 5bbf ff14 543f 9ad7 0a3f e60e a5be
000001b0: 5657 a2be 169d b3bd 489f 1d3f c367 13bf
000001c0: 5819 90bd 1711 4bbf d8da 4d3f 336d dc3e
000001d0: 0877 05c0 2915 03c0 befc c53e 378b e8bf
000001e0: 308c 9d3f e43c e3be 9fb8 803e 8ee0 81bf
000001f0: c8eb 14bf ffb4 ce3c 6ae0 ddbf fc36 d43d
00000200: fb1e febf 1c84 ccbf 3665 c7be d081 08c0
00000210: 3b13 b93e f7ee 56bf 7eff dcbe 774a 18bf
00000220: c894 43be ffa1 4f3d 34e4 fc3e a162 d7be
00000230: 5446 a2bd 4a34 14bf 7694 e8be 50ab 1b3f
00000240: 9416 edbe 265d 423e 680f 5cbf db70 12bf
00000250: b8f9 69bf f91b 9fbf 5628 713f 5a85 4bbe
00000260: 7be1 e93d 3d09 8bbf eaaa 46bf 96ee a13c
00000270: 5eb0 033e b47c 22bc b2c9 96be ee27 a13e
00000280: 0afa e3be db27 a9be b933 b63e 8424 e0be
00000290: 6fea 443e 5fd3 7c3f 275c 833e bb0e f33d
000002a0: 223e 503f 2527 0dbf d589 2cbf aa6c e23c
000002b0: fdf7 36bf ea5c e0be a94b 01bf 87ed 0bbf
000002c0: d4f4 55bf 6068 673f 68dd 1abf 3857 70bd
000002d0: 27fa b93d 4ae0 d93c 895d 26bd 9365 123b
000002e0: 69bc 39bf 51ca 413f 7afc dbbc a9fa 31bf
000002f0: b130 d0be eeb0 32bf ccf1 23bf b41a 0fbf
00000300: 63bc 6abe a3f2 183f 2cc3 36bf c92f aa3e
00000310: 53fb aabf 9448 303f 1d04 88bf b88e 84bf
00000320: 58ed ed3e 491a 013f 1ad2 593f a206 6a3e
00000330: 8765 453f d9d3 90be 0ce6 933e a5de 93bf
00000340: efa7 683e cfab edbe 0dd6 a83d 04d2 0e3f
00000350: 317b 013f 77d5 f53e edfe 85bf 3af6 4ebf
00000360: d6a5 293e 89ae d63e 3d77 d83e 3c37 a93c
00000370: f0f8 393f 8c83 eb3e 0289 373f 54e7 15be
00000380: efc5 5f3e 9201 a93f 075b e33d 3b9e 1fbe
00000390: 9eeb 2b3d 911f 2f3f 677d 943f 672a 0c3f
000003a0: 775e 86be 5b05 5f3f 601e 8abf 6656 ad3c
000003b0: c117 833f 1f60 163f fc3a 0d3f 6c28 e33e
000003c0: b397 10bf a09c 3e3d 2601 223f 71bb 15be
000003d0: 706f 62bf aa04 353f c53a cc3e 151e b43e
000003e0: 57c6 1d3f 8f11 f83c 8bbd f83d ce82 02bf
000003f0: 28bb 35bf 9460 023a e2d1 e53e b64c 51bf
0.40794143 0.4296069 0.5159106 -0.12277133 0.37154463 0.53621083 0.07160776 -0.35194808
-0.19356923 0.11622341 0.20555262 0.23282523 0.18573225 0.13704176 -0.326027 -0.24617738
-0.32352898 -0.46319133 -0.16556102 -0.8958159 0.12150611 -0.27766487 -0.31479466 0.15660046
0.28380263 0.9047901 1.2206281 -1.7132943 -0.27344158 0.1861767 0.5827754 -0.22188394
-0.04501425 -0.17912838 -0.3167927 -0.06337837 -0.75369984 0.15761647 -0.1258224 0.3362606
0.15159772 0.554477 -0.35215327 -0.2787203 0.04518289 0.13124228 -0.23225096 0.3370568
-0.2555302 -0.111599565 0.17570463 -1.9841526 -0.40679497 -0.37292415 0.28695747 -0.54706734
0.14424051 0.11088601 0.08372437 -1.2212367 0.047836404 0.12655354 -0.47855562 0.41243348
-0.6298019 0.31852075 -0.3151994 -0.41433337 -0.16164613 -0.12038145 -0.46024975 -0.13381149
0.76739943 0.37850517 0.19481237 0.33226722 0.65575564 0.008567706 -1.1699669 -0.8219547
0.002424987 0.35987923 0.45290348 -0.07976891 -0.294954 -2.0843701 -0.089451514 0.35096863
0.10143349 -0.18239543 -0.2913122 -0.101710245 -0.42817426 -0.17264703 0.13329966 0.010425912
0.2744564 -0.68356013 -0.34872502 0.027037174 -1.2953157 -0.5028053 0.8462949 -0.4088373
-0.8581608 0.8284454 0.5423523 -0.3223793 -0.31707257 -0.08770196 0.6157117 -0.575802
-0.07036084 -0.7932295 0.80412054 0.43052062 -2.08539 -2.0481665 0.3866939 -1.8167485
1.2308407 -0.44382393 0.25140855 -1.0146654 -0.58172274 0.02523279 -1.7334111 0.1036205
-1.9853204 -1.5977817 -0.38944405 -2.1329231 0.36147484 -0.8395838 -0.43163675 -0.59488624
-0.19099724 0.0506916 0.49392855 -0.42067435 -0.0792357 -0.57892287 -0.45425767 0.6080828
-0.46306288 0.18980846 -0.8596101 -0.57203454 -0.91396666 -1.2430412 0.9420217 -0.19875088
0.1141996 -1.0862194 -0.77604544 0.019767087 0.12860247 -0.009917427 -0.29450756 0.31475776
-0.44526702 -0.3303822 0.35586336 -0.4377786 0.19230054 0.98760027 0.25656244 0.11868044
0.8134481 -0.55137855 -0.67397815 0.027639706 -0.7147215 -0.43820888 -0.50506073 -0.5465931
-0.83576703 0.9039364 -0.6049409 -0.05867693 0.09080916 0.026596207 -0.040616546 0.0022338375
-0.72553116 0.75699335 -0.026853789 -0.695231 -0.4066215 -0.69801223 -0.6404083 -0.5590012
-0.22923426 0.59745234 -0.7139156 0.33239582 -1.3357948 0.68860745 -1.0626255 -1.0356054
0.4647014 0.5043073 0.85086215 0.22854093 0.77108043 -0.28286627 0.2888645 -1.1552321
0.22720312 -0.46420142 0.08243952 0.5578921 0.505786 0.48014423 -1.0468422 -0.8084446
0.16567168 0.41930035 0.42278472 0.02065622 0.72645473 0.459988 0.7169343 -0.14639026
0.2185285 1.3203604 0.111013465 -0.15587704 0.04197275 0.6840754 1.160077 0.547522
-0.26243946 0.87117547 -1.079052 0.021159362 1.0241624 0.5874042 0.5516813 0.44366777
-0.56481475 0.046536088 0.63283 -0.14622284 -0.8845129 0.7071024 0.39888588 0.351792
0.6163077 0.03028181 0.121455275 -0.5098084 -0.709887 0.00049734977 0.4488669 -0.81757677

bias f4 [50]
00000000: 82cb 1a41 45d5 d240 facd 1241 0c3a a040
00000010: 8d34 1b41 9b01 7140 7a86 1b41 d47d cb40
00000020: a6a2 4d40 2377 1e41 9e2c af40 17c9 bf40
00000030: 50b1 2a41 ca12 e040 aab9 5040 51fd b740
00000040: e5b1 ed40 cd96 8340 2c79 1941 c562 3840
00000050: dc69 2441 3fcb 0541 c1e4 1a41 6b88 a340
00000060: 9e77 2141 e235 2041 e006 2341 c692 5640
00000070: 98f3 0541 3751 c340 07fe 1941 f810 2241
00000080: 5c84 2d41 baa7 d740 365f 2641 b846 c240
00000090: cfce 1541 ddd3 0541 874d 0341 a195 be40
000000a0: 4f5e 8640 676a 2041 78e5 bd40 c188 8e40
000000b0: 5076 3b41 dcde 2f41 d7af 2a41 130e e740
000000c0: 4344 8440 0e47 d540
9.674685 6.588534 9.175287 5.007086 9.70033 3.765723 9.720331 6.35911
3.2130523 9.904086 5.4741964 5.993297 10.668289 7.0022936 3.261332 5.7496724
7.4279656 4.1121583 9.592083 2.8810284 10.275845 8.362121 9.680848 5.1104026
10.091703 10.013155 10.189178 3.3527083 8.371971 6.103664 9.624518 10.129143
10.844814 6.7392244 10.398245 6.0711327 9.36299 8.364224 8.206428 5.9557652
4.1990123 10.025977 5.9342613 4.4541936 11.716385 10.991909 10.66793 7.220468
4.1333327 6.6649237

weight f4 [50]
00000000: 9a32 0242 4835 0642 20b4 0442 eeb8 0542
00000010: 894a 0142 8e6c 0542 505f 0042 0bed 0442
00000020: 48da 0642 9d16 0042 4998 0642 3b34 0842
00000030: fdd0 0042 750f 0742 edff 0642 5150 0642
00000040: 8a57 0342 a1c3 0642 0d64 0142 29db 0642
00000050: 55ca 0542 2a15 0542 fc25 0342 2eae 0442
00000060: 1a9b 0242 c6e3 0342 75e0 0442 91c3 0542
00000070: cae4 0142 1814 0542 29a8 0142 6367 0342
00000080: 9991 0342 1f45 0442 202c 0242 0c4d 0542
00000090: d02c 0242 db80 0342 bd08 0442 ec99 0542
000000a0: 7b70 0642 74e0 0242 3517 0842 9649 0642
000000b0: 05ce 0242 8bdd 0242 a2b6 0342 ee80 0342
000000c0: d788 0542 8da1 0542
32.549416 33.552032 33.175903 33.430595 32.32279 33.35601 32.09308 33.231487
33.713165 32.022083 33.648716 34.051006 32.20409 33.765095 33.749928 33.578434
32.835487 33.691044 32.347706 33.714024 33.44759 33.270668 32.787094 33.170097
32.651466 32.972435 33.219196 33.440983 32.473427 33.269623 32.41422 32.850964
32.892185 33.0675 32.54309 33.32524 32.543762 32.875835 33.008533 33.400314
33.609844 32.719193 34.022663 33.57186 32.70119 32.71635 32.928352 32.875908
33.383633 33.407764

bias f4 [50]
00000000: c841 73c2 7f0a 7342 edc0 73c2 494a 7342
00000010: 4de9 72c2 43af 7342 0013 73c2 90ad 7342
00000020: 3715 7342 39eb 73c2 5d0c 7342 78eb 7342
00000030: ef29 73c2 33a0 7342 b779 7342 978b 7342
00000040: 10b9 73c2 e80f 7442 0852 73c2 0d62 7342
00000050: 56ef 73c2 0a3d 73c2 93b8 73c2 b1b5 7342
00000060: 8856 73c2 addb 73c2 a6dc 73c2 8422 7342
00000070: a14d 73c2 2a3e 7342 a82d 73c2 aaf8 72c2
00000080: a0de 73c2 a69b 73c2 5cd4 72c2 e9fc 7342
00000090: 2fd8 73c2 f22b 73c2 99eb 72c2 e318 7442
000000a0: aea1 7342 bf4b 73c2 f5ec 7342 2e14 7342
000000b0: 7625 73c2 7f2e 73c2 8685 73c2 ed8c 73c2
000000c0: 097c 7342 015b 7442
-60.81424 60.76025 -60.938404 60.822544 -60.727833 60.921154 -60.768555 60.919495
60.770718 -60.97971 60.762074 60.97995 -60.79095 60.906445 60.868862 60.88632
-60.930725 61.015533 -60.83011 60.845753 -60.983727 -60.80961 -60.93025 60.927433
-60.834503 -60.964527 -60.965477 60.783707 -60.82581 60.810707 -60.794586 -60.742836
-60.967407 -60.902 -60.707382 60.996983 -60.961117 -60.792915 -60.730076 61.024303
60.90789 -60.82397 60.981403 60.769707 -60.786583 -60.795406 -60.880394 -60.887623
60.871128 61.08887

running_mean f4 [50]
00000000: 24bb 2441 fb8e bb40 8e51 4541 bb03 1240
00000010: 066b 2241 9958 4640 638c 2441 63cf a040
00000020: e04a a13f 07c3 3041 de98 9640 22b6 9340
00000030: d6f8 3b41 1b03 cf40 4785 0f40 d561 8f40
00000040: 15ba f040 d384 4140 750d 2441 fd2f 0240
00000050: 9f5d 2541 cfca 0741 d44c 2a41 dbd1 7d40
00000060: a978 2f41 c75e 2d41 5a4e 2641 65c7 bb3f
00000070: 87b8 1441 20b3 9840 8920 1d41 52f2 2341
00000080: 88d8 3841 c443 e440 fcb6 2f41 86b9 9940
00000090: 3520 1841 480a 2841 abb6 1041 b66f 8640
000000a0: 2aff 0c40 f524 2641 3114 9a40 9a54 3340
000000b0: d62a 4441 822b 3841 1810 2e41 0ad8 f340
000000c0: 5db0 2e40 601b a340
10.295689 5.8612037 12.332411 2.2814777 10.151129 3.0991576 10.284274 5.0253158
1.2600975 11.047614 4.7061605 4.615983 11.748251 6.469129 2.2425096 4.4806924
7.522715 3.023732 10.253285 2.034179 10.335357 8.487014 10.643757 3.9659336
10.966958 10.835639 10.394129 1.4670225 9.295051 4.771866 9.820443 10.24666
11.552864 7.133272 10.982174 4.803897 9.507863 10.50251 9.044597 4.2011366
2.203074 10.384023 4.814965 2.8020387 12.260458 11.510622 10.878929 7.620122
2.7295144 5.0970917

running_var f4 [50]
00000000: f172 ea40 3d02 fb41 d223 5142 3f2c e240
00000010: 5c26 a240 209f 3c42 9d76 8740 eee9 6342
00000020: 1b0a cf40 4b30 f840 346b fe41 a7f6 4142
00000030: e391 fb40 e355 1d42 e515 cb41 5d04 4b42
00000040: 093e 0b41 ba10 3742 b809 1441 c720 bc41
00000050: 3da1 b740 2974 a540 b434 2a42 0432 7742
00000060: 5949 0941 7be2 c040 ba95 8f40 03df 1741
00000070: 4841 8741 d686 4642 fb70 7c40 d877 5440
00000080: a261 ac40 6ecb 4241 491b d640 9813 3942
00000090: cd3f f040 044c ca42 2d25 5a41 56bb 1142
000000a0: d995 b141 0346 a040 e2ee 4842 8610 d741
000000b0: 9e8e 9740 986c 7140 e28f 4a40 5567 3641
000000c0: 5389 0242 ff51 3d42
7.326531 31.376093 52.28498 7.067901 5.0671825 47.155396 4.233229 56.978447
6.4699836 7.755895 31.802345 48.49087 7.8615584 39.333874 25.38569 50.75426
8.702645 45.766335 9.252373 23.516005 5.7384324 5.1704297 42.551468 61.798843
8.580407 6.0276465 4.487027 9.491946 16.906876 49.631676 3.9443958 3.3198147
5.386918 12.174665 6.6908307 46.269135 7.507788 101.14847 13.634076 36.432945
22.198168 5.0085464 50.233284 26.883068 4.7361593 3.772253 3.165032 11.400228
32.634106 47.330074

weight f4 [1, 50]
00000000: b472 68c2 5b83 6842 fb00 68c2 3d29 6842
00000010: 8db2 68c2 2205 6842 0b73 68c2 28b3 6742
00000020: b58a 6842 69b4 67c2 3188 6842 2d0e 6842
00000030: 388a 68c2 1203 6842 4636 6842 8b06 6842
00000040: f51d 68c2 aed5 6742 4172 68c2 517b 6842
00000050: 8bff 67c2 aaa4 68c2 eeb1 67c2 3ecd 6742
00000060: fe75 68c2 99fe 67c2 a204 68c2 ad56 6842
00000070: fb4d 68c2 c152 6842 9c91 68c2 7298 68c2
00000080: 431b 68c2 4653 68c2 fca7 68c2 6eae 6742
00000090: eb14 68c2 b46b 68c2 11ee 68c2 bea8 6742
000000a0: 530a 6842 955b 68c2 eede 6742 7f78 6842
000000b0: 0050 68c2 4e55 68c2 cf4d 68c2 0731 68c2
000000c0: 0a20 6842 cbaf 6742
-58.112015 58.128277 -58.000957 58.04027 -58.174366 58.005013 -58.112347 57.924957
58.135456 -57.92618 58.133 58.013844 -58.13498 58.003 58.053 58.00639
-58.029255 57.95867 -58.111576 58.120426 -57.999554 -58.160805 -57.92376 57.95043
-58.115227 -57.99863 -58.004524 58.084644 -58.076153 58.080814 -58.142197 -58.148872
-58.026623 -58.08132 -58.164047 57.92034 -58.020428 -58.10518 -58.232487 57.914787
58.010082 -58.089436 57.967705 58.117672 -58.078125 -58.083305 -58.075985 -58.04788
58.03129 57.921673
